dqn_bus_scheduler.pth (torch, 15660 bytes, 6 tensors)

fc1.weight f4 [64, 7]
00000000: 61e0 87be a8b8 3bbf 248f fbbf 9c25 8dbf
00000010: 8654 a4bf b6bf f23f 7ea5 73be 800d b5bd
00000020: e82e 88be ee56 7d3e 8036 76bc 49eb 70be
00000030: e4ff adbe 0c4f d63d 60b0 a33c cf53 9b3e
00000040: 2bb7 813e 2e54 b1be 087a 4f3d 801e 1c3c
00000050: 942a 28be ea68 2d3e c677 413e 28ca e93d
00000060: b681 2fbe fc77 b3bd 7148 863e 4889 c2bd
00000070: f021 083e ff0f 3ebf 954c d9c0 3417 49bf
00000080: 6f02 d7bf d7b5 0240 5335 a5bd b8e4 0ebf
00000090: ada5 c8be 489a 97bf 4873 d7be e177 ec3e
000000a0: 4588 7440 1487 68bf 5bb3 2ebe 36e9 bdbe
000000b0: 8a7a 95be b4a5 333e 2cb3 2b3d 9855 713e
000000c0: 0ddc 1ebe 09ed 97be 7e74 033e 0d7f a43e
000000d0: 37d9 8bbe 30cf d93c 9091 1c3d 74c2 98be
000000e0: 84a5 9ebd 700e 92bd 4e41 2e3e 8051 71be
000000f0: 1a67 1a3e de65 4e3e 98bb 82bd 0cd0 e73d
00000100: 2f53 ec3e 0e7b 04be d3fe a2be 2270 fabd
00000110: 5653 4b40 f7b9 8a3d a108 11be 9149 b1be
00000120: ec81 eebd 8efd b2be 80a1 0ebb 08bf fcbd
00000130: 20aa ad3d 22e9 423e 24a6 043f d094 d93c
00000140: fc07 b33e 72c1 4b3e 8ec0 8140 d6de dc3e
00000150: fa7d 8abe e5c9 8bbc 2cd5 32bf 5637 973e
00000160: c119 d43e 50a1 8040 2a97 dabe 3705 ff3e
00000170: bae0 023f 8cce 1b3f 6b20 ebbd dbe4 843e
00000180: c1f2 7640 5072 d63e cfbb 633e 8986 c0bd
00000190: 7470 5c3e ddd4 953e 1f96 bcbd 0256 5240
000001a0: be81 acbe ae77 683e 970c 20be a2d5 92be
000001b0: 4087 30be 3e53 81be 368d 083e e0e9 d7bc
000001c0: aba4 ca3c 8bf5 9bbd 45c9 a1be 2045 a0be
000001d0: e465 453e 4305 5c40 3a05 59be 9747 d9be
000001e0: 861c 863e 3c4b 5bbf 8211 b43e b0e4 c23e
000001f0: 1e03 8540 886b 26bf f70a d6be 53b3 133d
00000200: 0fb2 8cbf 34ea a93e dec5 ec3e 8e6a 8b40
00000210: 28fc 1bbf 28ce a3be 608e 653d 8a62 c3bf
00000220: e870 e43e b16a 8d3f d171 a140 5e00 68bd
00000230: 2729 92be 5fa9 84be 1c91 e93d bfed af3e
00000240: 2272 b9be 63b7 67be 4039 3dbc 5c32 d13d
00000250: 8e75 96be 106b 8d3c 0bdc 1bbe 68e5 a5bd
00000260: e07a b33c 5219 aebe 7dc6 10be 8a30 263e
00000270: 34c7 9d3d 5ef3 bfbe da00 6bbe 141a 1cbe
00000280: a9ea 6bbe ac55 b03d 1e15 14be 24c1 54be
00000290: 3b31 6dbe 7370 a53e bc7c 89be 60ca d63c
000002a0: 3dc7 643e a598 bcbe 2d3b 3a3e c558 a5be
000002b0: b7dc b7be ddc5 2340 3a76 9d3e 7251 e5bf
000002c0: e220 82bf 9b39 ebbf d852 90bf 8580 27bf
000002d0: f617 2740 8252 15c0 74ed 57bf da25 1abf
000002e0: 6bc7 abbf 9993 80bf 5186 7ebf 935d eb3f
000002f0: 867e 84bf 0538 72bf 7838 e0be 236e 87be
00000300: 2b74 19bf 2521 99bf 7c72 1240 b0ee 6fbf
00000310: 7ac9 593e 8082 843c 1b00 26be c0ef 98be
00000320: 581d afbd d034 a93d a73d a7be a023 6bbd
00000330: 75b8 81be 1747 b6bd d40c bebd 19f4 2ebe
00000340: a327 4a40 25bf de3d be19 8e3c b226 b83c
00000350: 4812 17bd 5243 9f3d 3d52 c53e 20e9 7640
00000360: d029 b83e 88ae 82bd 2f23 b8be 6bbf 76be
00000370: 7ce4 b5bd 11a6 3bbe 4ed5 5f3e 38dd ec3d
00000380: c951 623e dd84 19be 0612 853e 874c b93d
00000390: be17 15be 350e 3c40 fbf3 0a3f 708d 81be
000003a0: d592 573d 22ca a3bd 08ee 0fbe 0994 e83d
000003b0: 2dd9 44bb 5483 babe 75f5 953b a09f 1cbe
000003c0: a0b0 2ebe 9895 803d 66d6 6dbd 8586 e5bb
000003d0: 8a05 2bbe df61 9fbe e17e 47be 31cd 863e
000003e0: 2bf8 58be 17f4 8ebe 3471 8ebe 9354 b1be
000003f0: 1005 a33d 72ba 3d3e 8f90 abbe 5162 a0be
-0.26538375 -0.7332864 -1.9653058 -1.1027102 -1.2838295 1.8964756 -0.23793599 -0.088404655
-0.26598287 0.24740192 -0.015027642 -0.23527254 -0.33984292 0.10464296 0.019981563 0.30337378
0.2533506 -0.34634537 0.050653487 0.009528756 -0.16422492 0.16934553 0.18893346 0.11415511
-0.17139325 -0.087631196 0.26227143 -0.094988406 0.13294196 -0.7424316 -6.7905984 -0.7855103
-1.6797618 2.0423486 -0.080668114 -0.5581775 -0.391889 -1.1843958 -0.4208014 0.4618521
3.8208172 -0.9083111 -0.17060606 -0.37091988 -0.29195052 0.1754368 0.04191892 0.23567808
-0.1551363 -0.2967303 0.12837407 0.32128182 -0.2731416 0.026588053 0.038224757 -0.29835856
-0.07746413 -0.0713166 0.170171 -0.23566246 0.15078393 0.20156047 -0.06383437 0.11318979
0.46157214 -0.12937567 -0.3183504 -0.12228419 3.1769614 0.06773751 -0.14163448 -0.3462644
-0.116458744 -0.34959072 -0.0021763742 -0.12341124 0.084797144 0.19034246 0.5181601 0.026560217
0.3496703 0.19898012 4.054755 0.4313876 -0.27049237 -0.017064044 -0.69856524 0.29534405
0.414259 4.0196915 -0.42693454 0.49808666 0.51124156 0.6086204 -0.114807926 0.25955853
3.8585665 0.4188409 0.22239612 -0.094006605 0.21527272 0.29263964 -0.09208321 3.2864995
-0.33692735 0.22701904 -0.15629803 -0.28678614 -0.17239094 -0.2525882 0.13335118 -0.026356637
0.024736723 -0.07615193 -0.3159887 -0.31302738 0.1927715 3.4378211 -0.211934 -0.4243743
0.26193637 -0.85661674 0.35169607 0.380651 4.1566305 -0.6500783 -0.4180524 0.03605969
-1.0991839 0.33186495 0.4624471 4.356757 -0.60931635 -0.31993222 0.056043983 -1.5264447
0.4461739 1.1048185 5.0451436 -0.056640975 -0.28547022 -0.2591047 0.114046305 0.34361073
-0.3621989 -0.2262855 -0.011549294 0.102146834 -0.29386562 0.017262965 -0.15220658 -0.081003964
0.021909177 -0.34003693 -0.14138217 0.16229454 0.077040106 -0.37490362 -0.22949544 -0.15244323
-0.23038734 0.086100906 -0.1446118 -0.20776802 -0.23163311 0.32312354 -0.26852977 0.026219547
0.22341628 -0.3683521 0.18186636 -0.32294288 -0.3591058 2.5589516 0.30754262 -1.791548
-1.0166285 -1.8376955 -1.1275282 -0.6543048 2.6108375 -2.3331609 -0.843467 -0.60214007
-1.3420233 -1.0045043 -0.994237 1.8387932 -1.0351112 -0.9461673 -0.43793082 -0.26451215
-0.59942883 -1.196324 2.2882376 -0.93723583 0.21268263 0.016175508 -0.16210978 -0.29870415
-0.08550519 0.08262026 -0.32664225 -0.05740702 -0.25336042 -0.08900278 -0.092797905 -0.17085303
3.1586692 0.10876302 0.01734626 0.022479389 -0.03688267 0.07776512 0.38539305 3.8579788
0.359694 -0.063809454 -0.35964343 -0.24096458 -0.088814706 -0.18325068 0.21858713 0.11565632
0.22101511 -0.1499209 0.25990313 0.090477996 -0.14559838 2.9383671 0.54278535 -0.2530322
0.052630264 -0.07997538 -0.14055645 0.113563605 -0.0030036673 -0.3642832 0.00457638 -0.15295267
-0.17059565 0.06278533 -0.058065794 -0.0070045614 -0.16701332 -0.31129357 -0.19481994 0.26328424
-0.21188419 -0.279206 -0.27820742 -0.34634838 0.0795995 0.18528154 -0.33508727 -0.3132501

fc1.bias f4 [64]
00000000: 638f 0540 5963 923e a16b a2be 4271 aabe
00000010: 842f d23f f147 6c40 1a68 a6be 6c95 d2bd
00000020: dc21 a4be 64dc 3a40 6e31 5c3e 1b07 7f40
00000030: 12aa 8140 c96e 7340 3c60 5040 96d5 6bbe
00000040: a170 3b40 b4cc 9240 5057 8440 a3a4 9d40
00000050: e1ed 8b3e bfb6 953e be02 2a3e ca3b 82be
00000060: dbf5 4440 7e38 3140 0f76 0a40 d297 2140
00000070: a98b 8abe 13d4 3740 e28e 6640 4ae6 6b3e
00000080: 0704 5840 93ec 963e ed3b aa3e f5f8 abbe
00000090: 46ab 00be 6e54 033e 90bf 1d3d 3b99 50bc
000000a0: 10c2 1640 c182 85be 5350 6840 8540 a03e
000000b0: 2845 93bd 6686 103e aab8 2c40 8208 fc3f
000000c0: 0997 b4be 86b5 0a40 11d3 a1be 0f11 0040
000000d0: 1743 a33e f02d 8b3c 11ce 9240 c715 ac3e
000000e0: f490 6d40 10ec 5140 492d 1c40 b7d5 38be
000000f0: 0ef8 063e e402 3e40 413d 1d40 0c29 813d
2.0868766 0.2859142 -0.3172274 -0.33289534 1.6420751 3.691891 -0.32501298 -0.10282406
-0.32057083 2.9197016 0.21503231 3.9848087 4.0520105 3.8036368 3.2558737 -0.23030695
2.9287493 4.587488 4.1356583 4.9263473 0.27329925 0.29240987 0.16602609 -0.2543624
3.0775058 2.769073 2.1634557 2.5248914 -0.27059677 2.872319 3.6024709 0.23037067
3.3752458 0.29477367 0.33248845 -0.33588377 -0.12565336 0.12825176 0.038512766 -0.0127318455
2.3555946 -0.2607632 3.6299026 0.31299224 -0.07190925 0.14113769 2.698771 1.9690096
-0.3527148 2.1673293 -0.31606343 2.0010412 0.31887123 0.016989678 4.5876546 0.33610365
3.7119722 3.280033 2.440264 -0.18050276 0.13180563 2.9689264 2.4568636 0.06306657

fc2.weight f4 [32, 64]
00000000: c4d3 63bd 0e92 9e3d 8ab1 b3bd d47f 74bd
00000010: cbe8 babd 776e 01be 94f4 9c3d 9ea0 c63d
00000020: 0e95 a53d b353 3dbd 28ce d43d 7e8b 56bd
00000030: 3093 0bbe c290 343d 1322 92bd 2416 763d
00000040: f886 953d db92 d9bd a958 2b3d 302e 913d
00000050: 668e 873d 9845 b0bc 9a6c d3bd 121f de3d
00000060: 6333 c13d 24a2 523d 679c 723c 605d a9bd
00000070: b6ce 843d c29d f0bd 4eae 1b3d 7aed 9bbd
00000080: ae2f c73c b823 41bd 5c2a 80bd 104e b8bd
00000090: c037 fbbd 8eb3 9ebd a039 aabd 5241 c83d
000000a0: ac39 14be f045 953c 7d51 13be 18a4 a6bd
000000b0: 00a3 9f3a ea20 92bd 31a0 c63d e8fe 183d
000000c0: 561a cdbd c37d 19be eca3 14bd 9d52 15bd
000000d0: b85d a83c 02b9 b7bd ae12 c03d c06f e93d
000000e0: 8f9e 2dbd 32cf 11be c314 abbc 6011 f03c
000000f0: 608c b53d c07a a23d 1982 ebbd eec3 c13d
00000100: 9099 ab3d c806 70bd f859 f73d 90f7 85bc
00000110: 000d 14ba 004c 533a faae 963d a05f a5bc
00000120: a0d1 30bd 76af d9bd 4403 b9bd ea8e aebd
00000130: 08f1 e1bd 306f babc f865 7dbd b8d4 633d
00000140: ee19 b83d 1c4a b6bd aee6 9e3d 882b 7cbd
00000150: ac12 7a3d ba25 f5bd 3cc9 64bd 143a 7d3d
00000160: 7c4c 98bd a079 593d 4aa0 9e3d 5028 e0bd
00000170: 3c46 42bd 9e89 bcbd e6b9 a2bd a856 1e3d
00000180: 9005 e53c 38dc 73bd d83e aa3c 6ae9 e7bd
00000190: a460 a4bd aef7 8b3d b476 a2bd d4cd d53d
000001a0: bcd8 53bd c03d 76bc e208 8c3d e097 493c
000001b0: 0839 ebbc 4064 e33d daf1 bfbd f82e 993c
000001c0: 482e 783d 60ad da3b 8860 2e3d 0c17 ba3d
000001d0: 0436 b7bd 20ab 08bc 904d 1abc b0d1 56bc
000001e0: a042 0e3c d845 e23c aae9 cabd 9c8c c93d
000001f0: 8007 0e3b d8c4 a53d e8b8 85bc 00cb b0ba
00000200: ffd3 a3bd 4043 b93c 0638 f9bd e855 29bd
00000210: 2a87 fcbd 04e5 b2bc b9b2 cabd 58f7 0a3d
00000220: 5ca6 a43d 257f f3bc 94a5 4c3d 2e54 d4bc
00000230: 78f0 9ebd 281a 00bd eae3 283c b460 69bd
00000240: 0e8c 763d 1260 e6bb 4f4e b4bb eced f9bc
00000250: 3e0f de3d 6eec d1bd 209c e0bb 3236 a2bd
00000260: ef67 71bd 8876 8d3d ac3e c6bc e26d 343d
00000270: a01a 703c f362 47bd 131f a2bc 006e 213a
00000280: 5a65 6dbd 03fc bb3d 92d0 4c3d 5861 a8bc
00000290: d8f8 33bd 88db 38bd b02d 6e3c 84f0 a1bc
000002a0: 0f6f 463d e06d 4b3d 38cc 26be deb0 b63d
000002b0: f4bc f93d 108a 213d c42c da3c 2bed e8bd
000002c0: 6048 fabc e52c f9bc 98d0 abbc b6c7 3abd
000002d0: 4e87 833d ba8e bebd 6b8d 64bd e86a 85bc
000002e0: c0c1 d3bd 4ff7 a73d 8d32 013d 2733 603d
000002f0: b420 90bd 8b4a 233c 422a f7bd 4bc7 c93c
00000300: 51bb d9bd 225b c2bd eed8 d7bd d2e8 a7bd
00000310: 9003 cfbc e8d1 1b3d b8b8 d03d 5054 debc
00000320: 58b8 e43c f636 5cbd 9af6 cdbd 000c 2c3d
00000330: bf8c e5bd 36f6 c9bb 8aa1 99bd c456 633d
00000340: 0e6b 68bd d61b 043d 7a6a 9bba d6c6 95bd
00000350: 52d5 c73d 0059 08bb 1648 a43d 408f 98bd
00000360: 7165 8b3b 1743 37bd 1a33 533d 3ed6 50bd
00000370: 3821 fabd 1a49 7fbd a766 a83d 509c 043d
00000380: 168d 113d 8aed a7bd f86c be3d 5663 993d
00000390: 1076 69bc 0004 01bd 20fc 45bd ada0 9cbd
000003a0: 9635 debb 58e9 e73d 253f 0cbd 2c03 913d
000003b0: 1899 933d 9423 a1bd c899 5e3d 6c59 b03d
000003c0: 006e c73a d416 a1ba 1ea0 c43d 6b8c da3d
000003d0: 78b6 c0bc 0c39 a6bd a30f ef3b 8ebe ac3d
000003e0: 0e0a 8abd 2d17 6a3d 9ed3 e7bd e8b1 94bd
000003f0: 4a3b b43d a640 13bc 5960 57bd db16 f43d
-0.055621877 0.077427015 -0.08774097 -0.05969222 -0.09126433 -0.12639795 0.07663837 0.09698604
0.080850706 -0.0462224 0.10390884 -0.052379124 -0.13630366 0.044083364 -0.071354054 0.06007971
0.07301134 -0.106237136 0.0418326 0.07088888 0.06618957 -0.02151756 -0.103234485 0.1084577
0.09433629 0.05142416 0.014807797 -0.08269763 0.064847395 -0.1174884 0.038008027 -0.076136544
0.024314728 -0.047153205 -0.062580794 -0.08999264 -0.12266493 -0.07749091 -0.08311772 0.09778084
-0.14475125 0.018221825 -0.14386554 -0.08136767 0.0012179315 -0.07135184 0.09698523 0.037352473
-0.10014789 -0.1498938 -0.03628914 -0.03645574 0.020552501 -0.08970834 0.09378563 0.11398268
-0.04238754 -0.14239195 -0.020883923 0.02930516 0.08864665 0.07933569 -0.114994235 0.09461199
0.08378899 -0.058600217 0.12077707 -0.016353399 -0.0005647689 0.0008060336 0.07357593 -0.0201872
-0.043168664 -0.1062917 -0.09033826 -0.085233524 -0.11032301 -0.022758096 -0.061864823 0.055622786
0.08989321 -0.08900854 0.077588424 -0.061564952 0.061052963 -0.119700864 -0.055855975 0.061822966
-0.07436463 0.053094506 0.077454165 -0.10945189 -0.047430262 -0.09205936 -0.079456136 0.03865686
0.027956754 -0.05953619 0.02078192 -0.11323817 -0.08026245 0.068343505 -0.07932797 0.10439649
-0.051720366 -0.015029371 0.06837632 0.012304276 -0.028713718 0.111031055 -0.093723014 0.018699154
0.060591012 0.0066735 0.042572528 0.09086427 -0.089458495 -0.008341581 -0.009417906 -0.013111517
0.008682877 0.027621195 -0.09907849 0.09841272 0.002167195 0.080941856 -0.016323522 -0.0013488233
-0.079994194 0.022615075 -0.12168889 -0.041341692 -0.12330468 -0.021837719 -0.0989737 0.03392729
0.08039543 -0.029723713 0.049962595 -0.025919046 -0.077607095 -0.031274945 0.010308245 -0.05697699
0.06019216 -0.0070304954 -0.005502499 -0.030508958 0.10842751 -0.102501735 -0.006854549 -0.07920493
-0.05893701 0.06907374 -0.024199806 0.044050105 0.014654785 -0.04867835 -0.019790208 0.0006158054
-0.057957985 0.09178927 0.050003596 -0.02055423 -0.043938488 -0.045131236 0.01453726 -0.019768007
0.048445757 0.04966533 -0.16288841 0.089204535 0.12194243 0.039438307 0.026632674 -0.11373361
-0.03055209 -0.030416915 -0.020973489 -0.045600615 0.06422292 -0.09304567 -0.05579893 -0.016286328
-0.10339689 0.08201467 0.03154235 0.054736283 -0.070374876 0.009966503 -0.12068607 0.024631163
-0.10631431 -0.094900385 -0.10539423 -0.08198704 -0.025270253 0.03804198 0.10191482 -0.027139813
0.027919933 -0.053763352 -0.10056801 0.04200363 -0.11208486 -0.006163384 -0.07501514 0.055502668
-0.05674272 0.03225311 -0.0011857294 -0.073133156 0.097574845 -0.0020805001 0.08021562 -0.07449198
0.004254036 -0.044741716 0.051562406 -0.050985567 -0.12213367 -0.062325574 0.082227044 0.032375634
0.03553494 -0.08199604 0.09298128 0.0748965 -0.01424934 -0.031497955 -0.04833615 -0.07647834
-0.0067812903 0.11323804 -0.034239907 0.07080683 0.07206935 -0.07868114 0.054345876 0.08610806
0.0015215278 -0.0012290129 0.096008524 0.10671314 -0.023524508 -0.081163496 0.007295565 0.08434783
-0.06740199 0.05715101 -0.1131966 -0.072604954 0.08800371 -0.008987581 -0.05258212 0.11918422

fc2.bias f4 [32]
00000000: 8e03 0bbe e07c ccbc b1d6 efbc 0d0c 0ebe
00000010: 2833 a33c a084 9b3b 7c29 e13d 310d ef3e
00000020: 04ee b03d 6a2d 483d 9175 323d 30d6 693d
00000030: 8841 403d b416 a53d f063 16be 2fad 95be
00000040: 1c1c 343e 651e de3d 5af6 483e 42d6 ecbd
00000050: c0e1 77bb 6477 683c 91d4 4abc b4e6 0bbd
00000060: aae7 dbbd daed a1bd 01dd 29bd ce9e 9cbd
00000070: d487 0840 3682 f9bd 6830 b83d 4cde d9bd
-0.13575575 -0.024961889 -0.029277178 -0.13871785 0.019921854 0.0047460347 0.10994241 0.46689752
0.08639148 0.048871435 0.04356915 0.05708903 0.046937495 0.08060971 -0.1468656 -0.2923369
0.17588848 0.10845641 0.19625226 -0.11564304 -0.0037823766 0.014188621 -0.012379781 -0.034155563
-0.10737546 -0.07906695 -0.04147053 -0.07647477 2.1332903 -0.12183039 0.08993608 -0.10638103

fc3.weight f4 [20, 32]
00000000: 6f13 3cbd 63d3 1c3e efbb e3bd f113 d7bd
00000010: 2c59 1abe ae6c ce3d 7438 073d 6dfe ef3d
00000020: e605 e33d 084b 103d ff8b 0a3e 00bb 5b3d
00000030: 97cc eb3c e8bf 1cbe 85ea 5c3e 20d3 d4bd
00000040: 1311 3838 f9c8 0a3e 3f6c 473e 3858 12be
00000050: 0f86 aabd b131 d3bd 858c 193e 9491 17be
00000060: 9ff3 f23d f76c 09be 8183 1d3e c766 003e
00000070: ae35 853f 8ed0 32be 955b 713d c49f 5e3d
00000080: 950a 4ebd 9e7d 9b3d 422a 953d 1003 07bd
00000090: 444b 3abd f79d 303e 3b8d 0f3e ef1c b83e
000000a0: 225b ca3c 06e2 d73d af71 993e 6f58 e7bd
000000b0: a695 8fbd e0a2 cbbc e6c0 da3e 50e5 203e
000000c0: 4249 a63e 0db2 dc3e dec5 b13e 2035 0dbe
000000d0: d0f9 c63b 20d9 b3bd d280 963e 72a3 0abe
000000e0: 4cd3 df3e aa62 d33d 8595 ca3e 9f79 433d
000000f0: b5da 763f ae77 d8bd 7483 d33c 24b6 26be
00000100: 19a0 9bbd 4614 e93d 119a 863d e072 82bb
00000110: c8cb e13c f65b 11be 4049 20be 71b5 b73d
00000120: 31d0 17be 4d1b 1c3e 6e52 9c3d 4040 e5bb
00000130: 75c6 1ebe 5a50 ce3d c7e5 413e 3da4 823e
00000140: 1be3 4d3d ffd0 b83d 7894 5f3e bced 7a3d
00000150: 6061 de3c d281 d83d 86ac 333d 3cb2 533d
00000160: 4622 e33d e586 09be 52b6 0f3e 3405 65bd
00000170: 0f8f 853f 4016 ffbb 879e e7bd 6a89 a63d
00000180: da34 f5bd 204d 493c c6ae 163d f062 ebbc
00000190: 86ec 2cbe 4ea7 07be ff7f 23be c2b6 c63e
000001a0: 81f8 23be 8e4e 963d 6882 e33e 60d8 cebb
000001b0: e459 bcbd 4928 863d e975 063f bbaf 033e
000001c0: a56b a33e d475 e63e 41ae 693e 208f 2f3d
000001d0: 808c 79bd 3b4d a43d 2663 863e 90ae 07bd
000001e0: 7bcb fa3e 6976 dfbd a423 b83e dad8 293d
000001f0: b271 783f 70f8 3dbc 3d01 963d c118 a3bd
00000200: cd91 19bd 6c09 8b3d 20fc 943d 9a32 dc3d
00000210: b847 dabd 006c 3fbc f53f 0b3e 7a23 133e
00000220: 26bb 03be e812 c5bc ec18 733e 2853 ae3c
00000230: 88eb 62bd 8b9d b0bd 0e33 643e e469 50bd
00000240: b840 403e 36e1 fa3d 734b a23e 1f9f 26be
00000250: ce4c bdbc 742c aebd 7ec6 76bb 486c 0ebe
00000260: 43a5 173e 5769 d5bb 799d 953d 5130 043e
00000270: c3c9 853f 2ac7 ea3d 1d8c 7bbb 9825 b7bc
00000280: 71f1 1cbe fd19 283e 371b bc3d cc04 39bd
00000290: c171 a0bd 7efd b03d 8199 0d3e 6ec0 d03e
000002a0: 0f9d 223e 7ce5 563d 561c da3e 8b44 09be
000002b0: 2014 793d 509b 10bd bea8 023f 2317 4c3e
000002c0: 606b d53e 2645 d73e 338b 8d3e 3a3f f43d
000002d0: ed28 2abd 7bae aebd 3274 d23e 0c5f 773d
000002e0: e963 bc3e 7e3e 4f3d 43b1 dd3e 85d9 10be
000002f0: 3f15 7f3f 9038 ec3c 8240 50bd c22c f6bd
00000300: 985b 82bd 3d27 31be 170a e03d ff20 213e
00000310: 6da1 0d3e e057 7b3c 3eda d03d 43c6 633e
00000320: 2600 b93d e041 073c 5a58 3c3e 5aa5 1dbe
00000330: de15 d33d e19e 17be 11c6 5b3e 7033 913e
00000340: 7500 e5bb b9a1 ac3d cc79 6a3e 2c66 153d
00000350: 10e3 3f3d 06b3 a23d 435b 2f3e ac96 aebd
00000360: 842c 8d3d 862e 29be b209 0e3e 9ba9 063e
00000370: 3e8f 853f 7e33 d23d 316d 1c3e 4056 263d
00000380: 61da 2b3e 6afc c43d f30e a23c 64e4 22be
00000390: 3034 c13c 485b 783d c846 1b3d e314 d23e
000003a0: a380 153e a810 b6bd 1ae8 c43e 7095 52bc
000003b0: b9ac 033d 0646 a4bd 6b4f 053f 4831 6b3e
000003c0: c55a d03e 3097 f63e ccee 703e 440c 0cbe
000003d0: b96f 07be 3835 bb3c 7d82 773e 7e27 08be
000003e0: 437b df3e fe04 343a 219a c13e 09a2 0b3e
000003f0: c489 763f a522 1f3e 95ec f43d 8072 2b3c
-0.04591697 0.15315013 -0.1111983 -0.105018504 -0.15073079 0.10079323 0.033012822 0.1171845
0.110851094 0.035227805 0.13529967 0.053645134 0.02878408 -0.15307581 0.21573837 -0.103918314
4.388492e-05 0.13553227 0.19474886 -0.14291465 -0.08326351 -0.10312212 0.1499501 -0.14801627
0.11862873 -0.13420473 0.15382196 0.12539206 1.0407007 -0.1746237 0.05892523 0.054351583
-0.05030306 0.07592319 0.07283451 -0.032961905 -0.045481935 0.17247759 0.14018719 0.35959575
0.024701659 0.105411574 0.29969546 -0.11296164 -0.07010965 -0.024857938 0.42725295 0.15712476
0.32477766 0.43104592 0.34721273 -0.13789797 0.0060722604 -0.08781648 0.29395157 -0.13538912
0.43715894 0.10321553 0.395672 0.04772341 0.9642747 -0.10569702 0.025819518 -0.16280419
-0.075988956 0.1138082 0.065723546 -0.0039809793 0.02756299 -0.14195237 -0.15652943 0.08970154
-0.14825512 0.1524479 0.0763291 -0.0069961846 -0.15505393 0.100739196 0.1893531 0.2551593
0.050265413 0.09024238 0.2183398 0.061261877 0.027146041 0.10571636 0.043865703 0.05168365
0.110905215 -0.13430364 0.14034393 -0.055913165 1.0434283 -0.007784635 -0.113095336 0.081316784
-0.11972971 0.012286454 0.03678777 -0.0287337 -0.16887102 -0.13247415 -0.15966795 0.38811308
-0.16012765 0.07339202 0.4443543 -0.006312415 -0.09196833 0.065506525 0.52523667 0.12860005
0.31918064 0.4501177 0.22820379 0.042861104 -0.060925007 0.08022543 0.2624752 -0.03312546
0.48983368 -0.10911257 0.35964692 0.04146657 0.97048485 -0.011594877 0.07324455 -0.07963706
-0.037492562 0.067889065 0.072746515 0.10751839 -0.106582105 -0.011683464 0.13598616 0.14369002
-0.1286436 -0.024056867 0.23739976 0.021279886 -0.0554004 -0.08623799 0.22285101 -0.050882235
0.18774688 0.12249987 0.31698188 -0.16271637 -0.023107912 -0.085045725 -0.0037654932 -0.13908494
0.14809136 -0.0065128016 0.07305426 0.12909056 1.0452198 0.11463769 -0.0038383075 -0.022356793
-0.15326478 0.16416164 0.09184878 -0.04517059 -0.07834197 0.086421 0.13828088 0.40771812
0.15880226 0.052464947 0.42599744 -0.13405053 0.06081021 -0.035304368 0.5103873 0.19930701
0.41683483 0.42044944 0.27645263 0.11926122 -0.041542936 -0.08529373 0.41104275 0.06039338
0.36794975 0.050596707 0.43299302 -0.14145477 0.99641794 0.028835565 -0.05084277 -0.120202556
-0.06365126 -0.17300124 0.109394245 0.15735243 0.1383111 0.015340775 0.101978764 0.222436
0.090332314 0.008255452 0.18393078 -0.15395108 0.10306905 -0.14806701 0.21462275 0.28359556
-0.00698858 0.08429284 0.22898024 0.03647439 0.046847403 0.07944302 0.17124657 -0.08524832
0.06893256 -0.16521654 0.13870886 0.13150637 1.0434339 0.102637276 0.15276028 0.0406096
0.16782524 0.09618457 0.019782519 -0.15907437 0.023584455 0.060633928 0.0379093 0.4103156
0.14599852 -0.08889896 0.3845833 -0.0128530115 0.032147143 -0.080211684 0.5207431 0.22968018
0.40694252 0.48162222 0.23528594 -0.13676554 -0.13226213 0.022852525 0.24170871 -0.13296315
0.4364873 0.0006867199 0.37812904 0.1363603 0.96303964 0.1554056 0.11959187 0.010464311

fc3.bias f4 [20]
00000000: 0dc7 9040 906c 7cbf 7952 7940 f46b 10bf
00000010: e361 6e40 31e5 84bf 6460 8140 f65d 8fbf
00000020: 0d87 8340 5af8 a2be 2ff6 8240 2a1a 42bf
00000030: d38f 8440 0e18 83bf fd0e 7840 1f07 2abf
00000040: a617 6b40 89ff d4be 812a 7940 54b3 5fbf
4.524298 -0.98603153 3.8956587 -0.56414723 3.7247245 -1.0382444 4.0430164 -1.120055
4.1102357 -0.31830102 4.0925517 -0.75821173 4.1425567 -1.0241716 3.8759148 -0.66417116
3.6733184 -0.41601208 3.8932192 -0.8738301
